mnist_cnn_b.pth (torch, 90103 bytes, 8 tensors)

conv1.weight f4 [10, 1, 5, 5]
000000 ba f6 96 be 60 03 cb bc d4 2d 38 be d2 ae 62 bd
       -0.29485112 -0.024781883 -0.17986232 -0.055342503
000010 e9 3a 34 3e 1c 91 75 be a6 4d 16 3e 6a a4 d6 3d
       0.17600597 -0.23981136 0.14678058 0.10480578
000020 00 02 ad 3e bd c5 a5 3d 90 79 63 3e b9 07 a3 3d
       0.33790588 0.08094356 0.22214341 0.07960457
000030 e0 eb 4c 3e b1 92 ab 3e e0 a7 65 3e b6 ac 66 3e
       0.20011854 0.33510354 0.2242732 0.22526821
000040 79 76 6b 3e af 64 02 3e 8c b5 dd 3d 81 e0 7f 3e
       0.22994412 0.1273372 0.10825643 0.24987985
000050 b3 4a b9 bd 7a 8f 71 be ae ad 25 be 0e 94 15 be
       -0.09047451 -0.23589888 -0.16179535 -0.1460726
000060 a9 54 07 3c 52 7a 27 3e 35 59 d3 bc 33 c9 80 be
       0.008259931 0.16355255 -0.025799373 -0.25153503
000070 ad 53 5b be 57 d7 9f 3c 32 f8 b8 3d 5d e8 b7 bd
       -0.21418639 0.019511862 0.090317145 -0.08979867
000080 a3 11 91 be ae 30 3f be f7 8f 2c 3e aa 67 cf 3c
       -0.28333768 -0.18670914 0.16851793 0.025317986
000090 59 a9 cd be ed c1 b4 be 07 55 7e bd ce 43 de 3e
       -0.40168265 -0.35304204 -0.062092807 0.43411106
0000a0 a9 aa 4f be e5 0a 41 be a9 53 83 be 88 fa f9 bb
       -0.20279945 -0.18851812 -0.25649765 -0.0076287426
0000b0 13 5b ed 3e 3f 98 5c be d9 4f a9 be db 9c 18 bd
       0.46358547 -0.21542452 -0.3306873 -0.037258964
0000c0 26 d5 4d 3d 81 d7 be 3e 7f 2c 28 3d 5d d9 8a be
       0.050252102 0.3727379 0.04105806 -0.2711896
0000d0 c2 7c 0b be 55 50 f3 bd 0a b3 7e bd 87 29 22 be
       -0.1362181 -0.118805565 -0.062182464 -0.15836154
0000e0 1b 5e 54 bd d7 6b 49 bd c3 be 68 3e 7c 5e 74 3d
       -0.05184756 -0.04917511 0.2272902 0.05966042
0000f0 58 80 91 be 73 6c 88 3d 8e 79 a4 3e 3f 1b 9d 3e
       -0.2841823 0.0666131 0.3212399 0.3068485
000100 8e cd 74 3e 5d c3 36 be f2 12 c3 3e 86 53 3b 3e
       0.23906538 -0.17847963 0.38100392 0.1829358
000110 3d 8b 52 3e 60 52 2d be 4e 4f 7b 3e 1b b8 67 3e
       0.20560928 -0.16925955 0.24541971 0.22628824
000120 42 f4 fa bd a8 99 28 3d 3e 86 b9 be 5c f6 ba 3e
       -0.1225362 0.041162163 -0.3623523 0.36516082
000130 61 ed 83 3e 22 b4 72 be 64 42 e1 be 7b ed ae be
       0.25767043 -0.23701528 -0.43995965 -0.34165558
000140 2c b1 cc 3e 54 31 b9 3e ac 63 90 be 4c 2d 4c be
       0.3997892 0.36170447 -0.28201044 -0.19939154
000150 cf e9 67 bd d5 89 6f 3e f8 f0 40 3d 2e 91 ad bd
       -0.05661946 0.23392422 0.047104806 -0.084749565
000160 1f 62 7f 3d eb b9 e3 bd e0 18 3f 3e cb db e4 bd
       0.062349435 -0.111194454 0.18661833 -0.11174735
000170 a6 be 16 bb f3 e2 0d be a4 d0 2d 3e c9 4d 61 3d
       -0.002300182 -0.13856106 0.16974121 0.055005822
000180 45 c1 3d 3c 8f fb 27 3e c9 da 05 be a4 c2 9a bd
       0.011581724 0.16404556 -0.13071741 -0.07556656
000190 2a ed 59 3e 16 78 ab bd ae b0 62 bd d1 82 89 be
       0.21281877 -0.08372514 -0.055344276 -0.26857617
0001a0 c4 ce 83 be d6 2a 7d bd 75 b6 f0 bd 1f f3 b0 be
       -0.25743687 -0.06180843 -0.11753551 -0.34560487
0001b0 6d 9f 86 be 51 d8 88 be e8 c9 8e be f2 12 e6 be
       -0.26293507 -0.26727536 -0.27888417 -0.4493633
0001c0 3d 61 71 be 31 18 12 bd 58 4b 83 3e 96 cb c0 be
       -0.2357225 -0.035667602 0.2564342 -0.37655324
0001d0 87 7c 06 be 48 94 79 3d 3f 74 2d 3d 54 c5 13 3e
       -0.13133441 0.060932428 0.04234719 0.14430743
0001e0 51 8c ba be 01 eb df bd f9 b0 d2 3d 78 19 5d 3e
       -0.36435178 -0.10933495 0.10287661 0.21591747
0001f0 5f 71 37 3e dc 1e 0e be a9 ff 7e 3e 43 a8 8c 3e
       0.17914341 -0.1387896 0.24902214 0.27472124
000200 c3 e5 d6 3c a3 eb 74 3e ac 88 9d 3e 0e eb b5 3e
       0.026232606 0.23918013 0.30768335 0.35530895
000210 59 ea a2 3e 88 30 45 3e a8 25 5d 3e 47 9b 00 bc
       0.31819418 0.19256794 0.21596396 -0.007849521
000220 67 95 d6 bd bf 1c c4 bd cd 0a ab 3c 12 8a 85 be
       -0.10477715 -0.095757954 0.020879174 -0.26081902
000230 a0 e1 b2 be 19 d4 7b be a4 b6 e4 be e7 24 a3 be
       -0.34937763 -0.24592628 -0.44670594 -0.31864092
000240 bc 61 02 be aa 75 29 be c5 15 a9 be d6 86 21 be
       -0.12732595 -0.16548792 -0.3302442 -0.15774092
000250 d9 72 75 3b 0a c8 4c be 10 70 63 bd 0d c6 c4 bd
       0.0037452488 -0.19998184 -0.055526793 -0.09608088
000260 71 d6 e0 bd 6c 1c bb 3d f7 c9 02 3e db 1d a6 3e
       -0.109784015 0.091362804 0.12772356 0.32444653
000270 b1 d3 92 3e 95 b8 99 3e 2c 77 a4 3e 72 09 d4 3e
       0.28677133 0.30023637 0.3212217 0.41413456
000280 f4 93 12 be f8 4c 67 3e 76 63 44 3d 5c 02 0b 3e
       -0.14314252 0.22587955 0.047946416 0.13575119
000290 46 40 17 3e 35 53 88 bb 62 2f 1a bd 42 3c 47 bd
       0.14770612 -0.0041603097 -0.037642844 -0.04864145
0002a0 f5 88 59 be 13 59 a8 be 91 bf c0 be be 9b ae be
       -0.21243651 -0.32880458 -0.37646154 -0.34103197
0002b0 46 b1 cf be e7 cb d3 be 7e fd df bd 77 d6 0e 3e
       -0.40564936 -0.41366503 -0.10937022 0.13949
0002c0 47 c4 bb 3e 4f 87 72 3e 07 e0 9d 3e 82 8f 4f be
       0.36673185 0.23684429 0.30834982 -0.20269588
0002d0 5e 37 79 be cc 94 bf 3d 7c ad 28 3e 2e 93 a0 3e
       -0.24337527 0.093545526 0.16472429 0.3136229
0002e0 f1 e4 97 3e 14 bc 8b be 8e 0a 7d 3c d1 41 8d bd
       0.29666856 -0.2729193 0.015444411 -0.06897319
0002f0 26 02 91 3d 4d 4f dd 3e 63 43 9b be ac ef 48 bd
       0.07080488 0.43224564 -0.3032485 -0.049056694
000300 96 51 81 bd cf c8 a1 bd 16 c1 ac 3e ac 5e cc bd
       -0.063143894 -0.07899629 0.33741063 -0.09978995
000310 2c 6c 26 be 95 bf ad bd c8 7a 02 be 5b 58 6c 3e
       -0.16252202 -0.08483807 -0.1274215 0.2308058
000320 e4 45 a9 bd a0 b5 15 bd 3f 38 97 3d 72 c9 5f 3e
       -0.08265284 -0.036550164 0.07383775 0.21854189
000330 a0 7f 88 3e 67 cd 50 be c3 ac 8e bb 23 7f 36 bc
       0.2665987 -0.20390855 -0.004354091 -0.01113871
000340 79 94 04 3e c9 47 af 3e dd 31 c1 bd 53 94 47 bd
       0.12947263 0.34234455 -0.09433339 -0.048725437
000350 29 12 1f bd 9d ef a9 3e 1e c5 ab 3d fe cd 96 be
       -0.03883568 0.33190623 0.083872065 -0.29454035
000360 e2 41 4d 3d ca 40 0d 3e 25 dd d2 3e fd 66 07 bd
       0.05011166 0.13794246 0.41184345 -0.0330572
000370 2d 60 13 be 76 0b 5f 3e ac b8 62 3e 4c d5 94 3d
       -0.14392157 0.21781716 0.22140759 0.07267246
000380 e2 7d 46 be 83 18 0f 3e f5 b2 5c 3e 3c a7 c9 3d
       -0.19383958 0.13974194 0.21552642 0.098463506
000390 8a 0c c3 3d cb 1e e8 bb e3 ae 5e 3e 90 27 65 be
       0.09523876 -0.007083749 0.21746401 -0.22378373
0003a0 07 f0 85 be 19 c2 f5 3c e0 08 0c 3d 8a cf b3 bd
       -0.2615969 0.02999978 0.03418815 -0.08779819
0003b0 ef 50 8d bd 0c 21 ce 3d ba 98 90 be 19 47 22 be
       -0.069002025 0.10064897 -0.2824152 -0.15847434
0003c0 fb 2b 4c bc 0e e0 c8 3e 28 b1 15 3e 03 06 13 be
       -0.012461658 0.3923344 0.14618361 -0.14357762
0003d0 af 51 bd bd b8 17 bc bd 7a b5 28 3e ce 55 a4 3e
       -0.092440955 -0.091842115 0.16475478 0.32096714
0003e0 d1 3c ce 3d 16 98 27 bd
       0.100701936 -0.040916525

conv1.bias f4 [10]
000000 cd fa 92 3e bd 16 b2 bd 7e e4 db 3d be 08 cc 3d
       0.2870697 -0.08695743 0.10736941 0.09962605
000010 ba 16 32 3e 7f 28 0e 3d aa 2d 71 3d 8c ae e0 bc
       0.17391482 0.03470659 0.05888144 -0.02742698
000020 f6 e5 ab be 54 26 74 3d
       -0.33573884 0.059606865

conv2.weight f4 [20, 10, 5, 5]
000000 40 d5 45 3e f7 fb e6 3d 48 6a c7 3d 8c d8 e6 3d
       0.1931963 0.11278527 0.097370684 0.11271772
000010 83 11 b8 3d 39 92 03 3d 50 17 93 bd 1e 24 ba 3c
       0.08987715 0.03212187 -0.07182181 0.0227223
000020 d6 7d 82 bd 69 d4 10 bd d4 c2 e8 bc 83 74 10 be
       -0.063716576 -0.03535882 -0.028413214 -0.14106946
000030 12 5f 09 bd fe fb 40 bd be 48 1b bd 47 08 a7 bd
       -0.03353793 -0.04711532 -0.03791117 -0.08155876
000040 6d 48 3d bd 19 82 42 3d 8d 69 6a 3c 46 58 ab 3b
       -0.04621165 0.047487352 0.014307392 0.005229029
000050 74 ec c9 bd 25 7a 2e 3c 8b 9b bf bc ba 97 6a bd
       -0.09859553 0.010649239 -0.023389598 -0.057273604
000060 85 d5 8f bd d1 99 97 bd d8 35 9f bd b4 07 c5 bc
       -0.070231475 -0.07402385 -0.07773942 -0.024051525
000070 24 fe ce bd 47 a7 8c bd e9 c7 67 bc 0f d3 ea bd
       -0.10107067 -0.06867843 -0.014146783 -0.114660375
000080 d5 1f f3 bc d8 35 cd 3c 7f b0 55 bd 5a 7b e5 bd
       -0.029678265 0.025050089 -0.052170273 -0.11205168
000090 b6 33 e1 bd d3 87 4f 3d c8 13 73 3d 67 42 14 bd
       -0.10996191 0.05066664 0.059345037 -0.03619614
0000a0 79 85 88 bd 4d 15 bf 3c d7 4e c6 3d d7 8e 9a 3d
       -0.06666083 0.023325587 0.09683006 0.07546776
0000b0 f0 80 b6 bc a8 97 06 3d b7 57 ed 3c 6c 7d 03 bd
       -0.022278279 0.032859474 0.02897249 -0.032102033
0000c0 12 e4 84 bc 70 f7 9a bd 0c f2 c3 3d c4 1c 92 3d
       -0.016222034 -0.07566726 0.09567651 0.07134393
0000d0 f7 30 1b 3d dc 5c 1c 3e 7d 64 47 3c 9f 41 86 bc
       0.037888493 0.15269798 0.012169954 -0.016388712
0000e0 5d 92 35 bd bf 7b 90 3d 23 a9 d5 3a 85 81 a8 3c
       -0.044329036 0.07054853 0.0016301017 0.020569572
0000f0 9c e1 10 be bf 08 e9 bd ba 69 af bd 45 97 31 bc
       -0.14148563 -0.11378621 -0.085650876 -0.010839288
000100 28 ea f9 bb 46 c5 cd bd 48 cd fe 3c 75 3a 84 3b
       -0.0076267906 -0.100473925 0.031103745 0.004035289
000110 5b 75 a8 3c de 90 4e bc b1 3f 0b 3d e4 fc 93 3b
       0.020563772 -0.012607781 0.033996288 0.004516231
000120 70 95 86 bd b8 aa d0 3a fc 4f a9 ba 24 7f 10 3d
       -0.06571472 0.0015920019 -0.0012917514 0.0352775
000130 a4 4a 74 bb 6d 77 b1 3d 2f 5d 56 3c 69 ac 89 bd
       -0.0037275935 0.08665357 0.01308374 -0.06722338
000140 2c cf e5 3c f9 18 9d bc f2 63 94 3d c6 5b 25 bd
       0.028052889 -0.019176947 0.072456256 -0.040370725
000150 a6 7b c8 bd f2 72 70 3d 3f 20 bd bd 9f 1d e3 bd
       -0.09789209 0.05870337 -0.09234666 -0.11089634
000160 9f aa bc bd 38 0d e4 bd 99 90 b0 bb 1c e8 af 3b
       -0.09212231 -0.11135334 -0.005388331 0.0053682458
000170 41 90 32 3c 11 e6 56 3d 7f 37 95 bc ce 87 21 bc
       0.010898651 0.052465502 -0.01821494 -0.0098590385
000180 ef 9e 1b 3d d1 a9 d6 3d a3 ac bf 3d 5c 5b a9 3c
       0.037993368 0.10481609 0.093591 0.020673446
000190 15 24 40 bd 48 a1 2c 3d f7 37 90 bd 8d a7 98 bc
       -0.04690941 0.042145997 -0.070419244 -0.018634582
0001a0 0d ab 22 bd 46 b6 ed bc e1 f9 29 3d e8 bc 0d bd
       -0.039713908 -0.029017579 0.04149807 -0.034603983
0001b0 89 a8 e9 3b 2b 39 de 3d e9 67 41 bc 4a a8 bc bb
       0.0071306867 0.10850748 -0.011804559 -0.0057573663
0001c0 d6 37 6d 3d a6 7b 0e 3e c3 49 79 3d e1 2d 85 bc
       0.057914577 0.13914356 0.06086136 -0.016257228
0001d0 e9 b3 7e 3c c4 d0 c3 3c 39 43 cf 3c 13 a0 07 3d
       0.015545824 0.023903258 0.025300609 0.033111643
0001e0 8a d2 25 3d 87 cf 67 bd 02 c5 a0 bc c5 eb 97 bc
       0.04048399 -0.056594398 -0.01962519 -0.01854504
0001f0 64 1b 47 bb 2c 47 a5 bc 6d bc d8 3c 56 a6 0f 3d
       -0.0030381316 -0.020175539 0.026457036 0.03507074
000200 1a bc 87 3d df c1 ef 3d a2 59 8a bd 48 c1 d9 3d
       0.066276744 0.117069 -0.06755377 0.106325686
000210 cb 67 8e 3d 41 65 07 3d 02 7a 91 3d 10 b7 94 bc
       0.06953391 0.033055548 0.07103349 -0.018153697
000220 f8 e3 07 3c c0 ed aa 3d 8d 27 18 bd a2 8c 55 3b
       0.008294098 0.083461285 -0.037147094 0.0032585044
000230 de 8d 9e 3c b1 a9 f0 bc 1d 21 6b bd 43 3f e0 3d
       0.019354757 -0.02937779 -0.057404626 0.10949566
000240 69 9e 39 3c 22 62 c6 3c cc 49 f4 bc cb 79 93 bc
       0.011329272 0.024216715 -0.029820345 -0.018002411
000250 49 ff d1 3c d2 0c 82 bc 9a 2e 6d 3d fe 55 56 3d
       0.025634425 -0.015875254 0.05790577 0.052328102
000260 ae cc 80 3d 06 c3 99 3d 3e a4 63 3d f1 b9 c5 bb
       0.062890396 0.07507901 0.055576555 -0.006034129
000270 a2 15 3b 3d 50 35 14 3e fd 33 16 3d 43 ca 02 3d
       0.045674928 0.14473462 0.036670674 0.031931173
000280 7e 89 73 bd 80 9a 82 3c 48 36 d3 bc f8 c3 79 3a
       -0.059457295 0.015942812 -0.02578272 0.0009527798
000290 85 d2 8e bc 8d 66 89 3c ef aa 3c bc fb 24 0e bd
       -0.017434368 0.016772533 -0.011515363 -0.034703236
0002a0 6d 07 c1 3d 88 a9 89 3d 7a e1 32 bd 48 a3 64 bd
       0.094252445 0.06721789 -0.043672062 -0.05581978
0002b0 6c 6b 03 bd b3 24 03 bd f9 a3 94 bd 8d 48 a6 bd
       -0.032084867 -0.03201742 -0.07257838 -0.08119307
0002c0 c6 9f 21 be 0a dd 2a bd f1 ee 8a bd cc 50 47 bc
       -0.15783605 -0.041714706 -0.06783856 -0.01216526
0002d0 ef 3c 02 be 73 d3 09 3d e9 00 0e 3b 4e ea 09 bd
       -0.12718557 0.03364892 0.0021668023 -0.033670716
0002e0 00 6b 10 bd 26 ec 43 bd d0 34 5a bd 43 34 3a bc
       -0.035258293 -0.04783263 -0.053273022 -0.011364999
0002f0 56 87 47 bc d4 4b 8c bd 09 44 dc 3d ed ee d3 3c
       -0.012178263 -0.068504006 0.10755164 0.025870765
000300 e7 6a 32 bc 22 52 78 3d 1b a5 5a 3d 50 00 25 3d
       -0.010889745 0.060625203 0.053380113 0.0402835
000310 50 61 00 3d 5b d8 00 3d 8f 35 c8 3c 7c b3 73 3b
       0.031342804 0.031456333 0.024439601 0.0037185838
000320 d4 f4 16 3d 97 06 33 bc 1f 55 57 bb 35 f7 11 3b
       0.03685458 -0.010926864 -0.0032857133 0.002227259
000330 55 b2 a8 3d 72 26 52 bd f6 f3 97 bd 0c fe 72 bd
       0.08237139 -0.051306196 -0.07419579 -0.05932431
000340 77 cb c2 bd 63 ec 6f bd 6f 14 72 bc 4f 00 09 bd
       -0.09511464 -0.058575045 -0.01477538 -0.03344756
000350 71 77 43 3c 1e ca 90 bc e9 8a 52 bd 80 36 c1 bd
       0.0119303325 -0.017674502 -0.051402006 -0.09434223
000360 ba 42 bc 3c f6 3f ab 3c 3a 49 ca 3c 5d e5 5a 3c
       0.022981036 0.020904522 0.02469312 0.0133603485
000370 41 83 a9 3d 59 eb e3 3c 41 ac 8c bd 75 21 35 bd
       0.08276988 0.027822183 -0.06868792 -0.04422136
000380 b4 d4 f3 3b 33 cc ae bd 9a 40 f9 bb 0c c9 64 3d
       0.0074411277 -0.08535042 -0.007606578 0.055855796
000390 8f 4b 32 3d 5b d6 09 bd 43 53 a4 3d e2 50 02 bd
       0.04352909 -0.03365169 0.080236934 -0.031815417
0003a0 b5 b4 f1 3b 77 91 cd bc 8d cd 22 bd b0 73 04 3d
       0.0073762783 -0.025093777 -0.03974681 0.03233689
0003b0 e7 d1 12 bc 58 75 3a bd af f9 b7 bc c9 06 49 bc
       -0.008961177 -0.045522064 -0.022457926 -0.012269684
0003c0 b9 6d 11 3a 19 cf 65 bd 3f 24 89 3d 2a b6 0a 3d
       0.0005547661 -0.056105707 0.066963665 0.03386513
0003d0 ab d8 c5 bc bc 2c cb 3d d8 66 44 bd fe fb 91 bd
       -0.024151167 0.09920642 -0.047949642 -0.07128142
0003e0 ad 57 14 3d 66 ed 0b bd cd 46 b7 3c 9f 09 96 3c
       0.036216427 -0.034161948 0.022372628 0.018315135
0003f0 04 44 ee 3c 07 dd 7f 3d 3e cd 53 3e 2a d4 22 be
       0.029085167 0.062466647 0.20683762 -0.15901247

conv2.bias f4 [20]
000000 3d a1 83 bb 56 95 8c 3d 09 ca 33 3b 7c 22 27 bd
       -0.004017024 0.06864421 0.0027433655 -0.04080437
000010 5e 93 84 3d 0e 31 05 3b 81 63 19 3c 65 d8 99 bc
       0.064734206 0.0020323428 0.0093621025 -0.018779943
000020 0c 3b 06 3d 72 85 a1 3c 3b eb 31 bd 12 ed 93 3c
       0.032771155 0.019716952 -0.043437224 0.01805738
000030 bc 74 4e 3c 87 78 32 3d 35 d5 bf 3c 7f 42 4a bc
       0.012601074 0.043571975 0.023417095 -0.0123449555
000040 b7 6a 9f bc 26 a2 47 39 13 9e 3a bd 51 b0 87 3d
       -0.019460065 0.00019038524 -0.045560908 0.066254266

fc1.weight f4 [50, 320]
000000 8b 2a 5c 3d bb bb 97 3d d6 78 1c 3d e8 d1 61 bd
       0.05375151 0.074088536 0.038201176 -0.055131823
000010 60 63 71 3d a1 c8 4d 3b 72 c7 57 bd be 8d a2 3d
       0.058932662 0.0031400102 -0.05268044 0.079371914
000020 1b 21 15 bc 1d 39 61 3c 7f 04 4a bd 98 51 9f bc
       -0.009102131 0.013746527 -0.049320694 -0.019448087
000030 fc e1 8c 3d 15 8d 0c 3c e9 38 15 bd 77 76 71 bd
       0.068790406 0.008578558 -0.036431227 -0.058950868
000040 a5 70 18 bd 70 39 7b bd 8c 2d 0e 3c ad a8 94 bd
       -0.0372168 -0.061334074 0.008677851 -0.07258735
000050 c5 b4 95 3b 31 f0 59 bd 6a cf ea 3c be 0c 5c 3d
       0.0045686685 -0.05320758 0.028663356 0.05372309
000060 bb 99 b7 bb b7 47 16 3e bf 80 67 bd f3 a1 16 3c
       -0.005603043 0.14675795 -0.056519266 0.009193885
000070 90 c1 30 3c c0 ee 04 3e 71 f8 84 bd 74 87 ab bd
       0.010788336 0.12981701 -0.06492699 -0.08375445
000080 7f 31 22 bd 5a 7a 4e bd 0a 65 82 ba 3b a0 37 3c
       -0.039597984 -0.050409652 -0.0009948325 0.0112076355
000090 b2 12 6b bc 59 67 e8 3c 33 20 94 3d e4 c6 9f bd
       -0.014347719 0.028369593 0.07232704 -0.07801607
0000a0 d3 e0 3c 3d 9c 5d bc 3d 8d 7e 02 3d 77 0b 60 bd
       0.046112847 0.09197542 0.03185897 -0.054698434
0000b0 a7 e4 fc 3d 6a 16 96 bd e0 1b 5b bd 68 54 95 bd
       0.123482995 -0.07328494 -0.05349338 -0.0729149
0000c0 e1 c7 9a bc f3 04 0f 3d 65 83 a8 bc 38 37 96 3c
       -0.018894138 0.03491683 -0.020570466 0.018336877
0000d0 03 a9 ca bc 68 35 44 3c 6e a1 ba 3b c3 49 43 3c
       -0.024738794 0.011975624 0.0056955134 0.011919442
0000e0 16 8b 07 bd 63 8b b9 bd 90 fd e2 bc 14 a4 0b bb
       -0.033091627 -0.09059789 -0.027708799 -0.0021307515
0000f0 6d a5 0d bc 06 45 d9 3d ed d7 15 3c 23 9f 2b 3d
       -0.008645398 0.10608868 0.009145719 0.04189981
000100 4a eb de bd 78 75 a7 bd c8 6d a6 bc 55 85 bc 3a
       -0.108847216 -0.08176702 -0.02031602 0.0014382998
000110 19 19 b6 3c 49 8e 08 3d 2c 3d 04 3e a5 4a 39 bd
       0.022228764 0.03333882 0.1291396 -0.045237202
000120 04 e4 7b 3d b1 c8 78 3d 28 b3 15 3d 56 0c 4c bd
       0.06149675 0.06073827 0.03654781 -0.049816452
000130 e0 0e 93 3c 49 de c7 bd 00 e7 fa bd 4e 0f 91 bd
       0.017951429 -0.097591944 -0.12251091 -0.07082997
000140 c4 63 98 bc dc 06 1d bd ae cb 33 bc 4b 46 23 bc
       -0.01860226 -0.03833662 -0.010973854 -0.00996549
000150 74 00 5e bd 93 0a 34 bc 34 c0 aa 3b 51 a8 f8 3c
       -0.05419965 -0.010988849 0.0052109007 0.030353697
000160 0b a2 95 3c 69 8f 65 3d 45 0e 08 3c c1 5b b3 3c
       0.018265745 0.05604497 0.008304183 0.021894338
000170 d5 8e 3b bc 03 df 80 3d 91 0b 84 3c 17 bd ab bb
       -0.011447628 0.06292536 0.016118797 -0.005241047
000180 6e 8c a0 bb aa 4d ce bb 6b d0 2d 3d 4d 0e 0a bd
       -0.004899553 -0.0062958794 0.04243509 -0.033705045
000190 5f 91 be bc 19 63 d6 bc c7 d1 1d 3d 86 fd c3 bc
       -0.023262678 -0.0261703 0.038530137 -0.0239246
0001a0 05 ee 90 bd 8e c4 8f bd 38 4c 97 bd 73 94 61 3d
       -0.070766486 -0.07019912 -0.073875844 0.055073213
0001b0 2f 80 b1 3c 0f 5f 7d 3b c9 33 ed bb 83 a3 74 3d
       0.021667568 0.0038661396 -0.0072388393 0.05972625
0001c0 78 04 0e bc 5d a9 9b 3c d9 82 e0 3a 79 6f 07 bd
       -0.008668058 0.019001657 0.0017128839 -0.033065293
0001d0 a7 96 07 be a4 b7 e1 3c 25 0e 45 bd fe fc 04 bd
       -0.13241063 0.027553387 -0.048109192 -0.032467835
0001e0 52 45 e0 bc c1 2b 83 3d 64 9f f7 3c 9a 41 ae bc
       -0.027376805 0.0640483 0.03022737 -0.021271516
0001f0 bb cc 0b 3d 4e 3a ef 3c 4b c3 03 bd 8a 5d 71 bd
       0.034130793 0.029202607 -0.032168668 -0.058927096
000200 85 84 0f bd 24 58 c3 3b b6 32 80 bd 22 f8 99 3c
       -0.03503849 0.005961435 -0.06259672 0.018795077
000210 d0 8d 7d 3d e2 91 38 3c a9 7a 55 bd 77 4e 07 bb
       0.06190282 0.01126525 -0.05211893 -0.0020646134
000220 60 0b 17 3d 85 47 73 3d 54 1d 57 bd f5 ba 4f bd
       0.036876082 0.05939438 -0.052518204 -0.050715405
000230 36 ac 17 3d 5b 30 4b bc 12 31 83 bd 8f ad 4d bd
       0.037029468 -0.012401666 -0.06405844 -0.050214346
000240 dd 00 26 bd 03 bf d4 3a 08 f9 9f bc 7d 35 73 bb
       -0.040528167 0.0016231242 -0.019527927 -0.003711074
000250 3e 1b 79 3b 29 97 08 3d b9 8f 07 3c 57 ed 07 bd
       0.0038010622 0.033347283 0.008274012 -0.03318533
000260 b3 50 c4 bd 09 63 f8 bc d3 76 2e 3d 75 4c 02 3d
       -0.09585705 -0.030320661 0.04259379 0.031811196
000270 16 0f d9 3d f0 b2 49 3d c2 f6 80 bc 52 32 ff 3c
       0.105985805 0.049242914 -0.015742663 0.031151924
000280 51 85 a9 3a ac 7c b4 3d 6a 2a 7b bb 38 e3 99 3c
       0.0012933408 0.08812842 -0.0038324841 0.018785104
000290 c3 80 a7 3d b9 e4 86 3d 2a 46 f7 3c fd 77 6e 3b
       0.08178856 0.06586594 0.030184824 0.0036387437
0002a0 e2 ff f9 bd 48 1d 35 be 71 b6 17 bd 30 41 34 3c
       -0.12207009 -0.17686951 -0.037039224 0.01100187
0002b0 da d8 e9 bc be a7 5e bd 4c 85 53 3d a7 e0 2e ba
       -0.028545786 -0.05435919 0.051640794 -0.0006671049
0002c0 43 65 8a bc f4 12 03 bd 3d 93 15 bd 91 84 91 3c
       -0.016893988 -0.032000497 -0.03651737 0.017763408
0002d0 53 29 95 3a 00 91 bc 3d 2a 64 f6 3c 1e e9 73 3d
       0.0011380113 0.09207344 0.030077059 0.05954849
0002e0 90 b2 f7 bd c0 f9 02 bd 10 ce c5 bb 59 e5 59 3c
       -0.12094605 -0.03197646 -0.0060365275 0.01329931
0002f0 42 cd 4f 3b 06 95 f6 3c df f5 2c 3d 4e 46 e3 3b
       0.0031708037 0.030100357 0.04222667 0.006935871
000300 22 00 4c bc 38 af 99 3a c3 85 d0 3d c0 0a 64 ba
       -0.012451204 0.0011725193 0.10181763 -0.00086991116
000310 49 96 0d 3d f3 e6 f7 bc cc 88 1a bd 9f 89 20 3c
       0.03456715 -0.030261492 -0.037728116 0.009798436
000320 b1 5b 1d be e9 54 13 3b fa fb 1c 3d 98 a0 67 bd
       -0.15367009 0.002248103 0.03832624 -0.05654964
000330 b1 76 fb bc b6 21 84 bc f8 80 2d 3d 7a f5 5a 3d
       -0.030696245 -0.016129356 0.042359322 0.05345676
000340 6b f9 67 bd 39 aa f1 3b e8 df 09 bd dc 0e cb bb
       -0.056634348 0.0073750285 -0.0336608 -0.0061968397
000350 ed f7 1f 3d bd f9 de bb d7 dd 4f 3c f4 ec 61 bc
       0.0390548 -0.0068046735 0.012687168 -0.013789404
000360 37 51 46 bd dd e9 2a bd c2 0d 51 bd 50 5e 6d 3c
       -0.048417296 -0.041726936 -0.05103851 0.014487818
000370 52 85 05 3e be a9 90 3d d9 b3 a8 3d 68 cc e3 3c
       0.13039139 0.07063626 0.08237428 0.02780743
000380 5e 13 bc bb dc 9a 84 3c fe d5 20 3c 24 9e d6 bc
       -0.0057396134 0.016187124 0.009816645 -0.026198454
000390 9e c9 68 3b 2e f3 ff 3c 91 e6 23 3c 69 ec 55 39
       0.0035520564 0.031243887 0.010003702 0.00020401333
0003a0 22 d5 b6 bd c3 3b 01 be 66 19 0a bd eb 49 62 3d
       -0.089273706 -0.12620454 -0.033715628 0.055246275
0003b0 da cb 62 bd 33 34 b0 bc 0f c9 ce 3d 8c 95 21 bc
       -0.05537019 -0.021509266 0.10096943 -0.009862315
0003c0 ce 94 4d bd 00 43 9b bd ba 13 9d 3d 88 e9 92 bd
       -0.05019074 -0.075811386 0.07669778 -0.07173449
0003d0 1a 22 3c bd 4b 9c ed 3c 0f 3d af 3c a9 d4 37 bc
       -0.04593096 0.02900519 0.02139142 -0.011220136
0003e0 37 6e 02 3e 52 5f 92 3d 8f 83 c5 bc aa e0 5b bd
       0.12737356 0.07147087 -0.024110584 -0.053681053
0003f0 4d 6e 11 3e 74 04 ec 3b be b1 86 bc ec ad 43 bd
       0.14202233 0.0072026793 -0.016442176 -0.047773287

fc1.bias f4 [50]
000000 1d cb f7 3c 30 f8 88 3b 1e 4c 56 3d 7e 68 23 bc
       0.03024822 0.004179977 0.052318685 -0.009973643
000010 34 30 d6 3d b7 dc cc 3d 81 9d 5c 3d 1b a7 74 3d
       0.10458413 0.100030355 0.053861145 0.059729677
000020 36 d7 b0 3c 28 d1 b2 bc bc 97 7d 3c 24 c5 3c bd
       0.021586996 -0.02182825 0.015478071 -0.046086445
000030 d5 85 8a 3d a6 41 83 3d 14 8e e2 bc af 4e c3 bb
       0.06763808 0.06409006 -0.027655639 -0.0059603075
000040 cb 85 78 3d c6 49 8d 3c 25 f2 83 3d 4e c0 f1 3c
       0.06067447 0.017247092 0.0644267 0.029510643
000050 29 83 f6 3c 05 df 44 3c 26 8b 79 3d 5d 20 71 3d
       0.030091839 0.012016063 0.060923718 0.058868755
000060 97 b4 34 3d f2 78 c0 bc 36 be 4b 3c 3e 51 0f 3d
       0.044117536 -0.023495171 0.012435487 0.034989588
000070 e0 2f 77 3d f9 64 da 3d 0a 63 71 bc 10 9c 8d 3d
       0.06034839 0.1066379 -0.014733085 0.06914532
000080 7a 13 a7 3d 92 d4 5c 3c 4b c7 9a 3d 17 df 7a 3d
       0.08158012 0.013478415 0.07557543 0.06124791
000090 17 2d 46 bc 60 67 39 3d 9d 43 8a 3d 76 91 d2 3d
       -0.012095711 0.0452646 0.067511775 0.10281651
0000a0 4d 98 9e 3c 23 45 c0 3d 28 93 f1 3b 3b 03 81 3d
       0.019359732 0.09388187 0.0073722787 0.06299444
0000b0 30 ad 10 3d f6 c7 21 3d 07 fa 82 3d 1c 01 0d 3d
       0.035321414 0.03949734 0.06395345 0.034424886
0000c0 29 cb c1 3c 47 b1 24 3d
       0.023656445 0.040208127

fc2.weight f4 [10, 50]
000000 b1 cd 3f be 6e 1a 28 be ee b5 3d be a9 b2 f1 3d
       -0.18730809 -0.16416332 -0.18526432 0.11801655
000010 96 7e 8d be bb 8b 09 bb fa 86 34 3e 05 25 25 3e
       -0.2763564 -0.0020987827 0.17629614 0.16127403
000020 11 ee 19 be 0e 47 80 be 64 64 d8 3c f3 bc a9 bd
       -0.15032221 -0.2505421 0.026415057 -0.08287992
000030 0d 1f 51 3e f6 f6 24 3e c3 57 a3 3d b9 d0 c4 bd
       0.20422001 0.16109833 0.079757236 -0.09610123
000040 4a 60 5b 3e fb 15 46 be 4b ab 3c be 91 66 62 be
       0.2142345 -0.19344322 -0.18424718 -0.22109438
000050 ab 57 0c be 47 47 47 3e 81 a2 7a be 91 54 55 3e
       -0.13705318 0.19460784 -0.24476053 0.20833041
000060 13 d9 0e be 7c 55 2f be 23 59 55 be c0 76 79 be
       -0.13949995 -0.17122453 -0.20834784 -0.24361706
000070 cc 54 e6 bd e8 05 ba bd e0 69 00 3e 5c 81 0d be
       -0.112466425 -0.09083158 0.12540388 -0.13818878
000080 16 67 84 3e 78 8f 41 3e b8 6a 1d 3e b2 bc 24 3e
       0.25859898 0.18902385 0.15372741 0.16087607
000090 18 a8 ba 3e 0d ce 0d 3e 54 d1 93 bd 2c a8 cc bd
       0.3645637 0.13848133 -0.072176605 -0.09993014
0000a0 4c 37 08 3e 02 3c 36 be b5 81 67 3e e9 1b 05 be
       0.13302344 -0.17796329 0.22608073 -0.12998928
0000b0 e6 95 39 be 4a 05 d7 bd a2 9b 2b bd ce 80 3a be
       -0.18123588 -0.10499056 -0.04189647 -0.18213198
0000c0 7f 90 41 bd 6a 3b 83 3e 6e 58 6d be 3d 56 a8 be
       -0.047256943 0.25631267 -0.23178264 -0.32878295
0000d0 aa 8d 82 3e 4b bd 65 be f3 1a 3c 3e b4 91 aa 3e
       0.25498706 -0.22435491 0.18369655 0.33314288
0000e0 4c a2 81 be 1b 85 75 be df 7a 59 3e cd 52 89 be
       -0.25319135 -0.23976557 0.21238278 -0.26820984
0000f0 a3 f5 9c be d7 65 84 be c4 66 a9 3c 81 4b 8c be
       -0.30656156 -0.25858948 0.020678885 -0.27401355
000100 ab 80 3e be da ab 20 3e ba 6e f7 bd 82 16 45 3e
       -0.1860377 0.15690556 -0.12081666 0.19246867
000110 49 bb 47 3e fe 2a 57 be 1b 34 9a 3b e6 d6 d8 bc
       0.19505037 -0.21012494 0.0047059185 -0.026469659
000120 85 dc 47 3e a8 d6 3f be 11 83 94 bd c5 60 24 3e
       0.19517715 -0.18734229 -0.072515614 0.1605254
000130 a3 2e 0d 3e bf 3f 24 3e b8 3e 87 3e c7 4e 6c 3e
       0.13787322 0.16039942 0.26415038 0.23076926
000140 2e 21 25 3e 85 ac 03 3e e5 77 82 3e a4 c8 65 be
       0.16125938 0.1285878 0.25482097 -0.2243982
000150 59 af 40 be c9 4e 8c be f5 0d 1c bd 31 93 19 3e
       -0.1881689 -0.27403858 -0.038099248 0.14997555
000160 ed 34 07 be 27 09 81 3e 2f e0 9e be e1 ec 45 3e
       -0.13203783 0.25202295 -0.31030414 0.19328643
000170 f8 7a 6b be 51 e5 09 3e b1 02 1a be 90 69 42 be
       -0.22996128 0.13466384 -0.15040089 -0.18985581
000180 9e 04 e8 bd 0c 2a b5 bc ea 2b 68 bd 38 c2 ab bc
       -0.11329006 -0.022114776 -0.056682505 -0.020966634
000190 3c 44 1c 3d 84 a9 68 be 0b ae 50 be 94 f2 0a 3e
       0.03815101 -0.22720915 -0.20378892 0.13569099
0001a0 9e 8a 3b be af 17 33 bd d3 5f 0d bc 8b d6 58 be
       -0.18314597 -0.04372376 -0.008628803 -0.21175592
0001b0 d2 2a 76 3e ec 56 39 be c0 95 21 bd f9 8d 85 3d
       0.24039772 -0.18099564 -0.039449453 0.0652122
0001c0 0c 0a 4a 3e d8 41 46 be ee 49 46 3e 27 e9 2e 3e
       0.19730395 -0.19361055 0.1936414 0.17081128
0001d0 e1 e3 42 3e d1 50 16 3d f1 6f 51 3e e5 9c dc 3d
       0.19032241 0.036698166 0.20452859 0.10772113
0001e0 b4 33 28 3e 4a f8 5a be 56 01 df bd 6a 1b a4 bd
       0.16425973 -0.21383777 -0.10888927 -0.08013041
0001f0 7b 38 3b be 82 4b 49 3e ca 10 42 3e ce 81 31 be
       -0.18283264 0.1965771 0.18951717 -0.17334673
000200 91 39 03 be 51 af 5c bd 33 82 38 be 60 45 f5 3d
       -0.12814929 -0.053878132 -0.18018417 0.11976123
000210 a2 8e 83 3e b7 8e 4f 3e 55 51 6b bd 93 ab f7 bd
       0.25694758 0.20269285 -0.05745061 -0.12093272
000220 43 88 98 3d 04 ca 1f be 13 ca 12 be e3 97 2f bc
       0.07447865 -0.15604407 -0.14334898 -0.010717365
000230 57 c7 82 bd 77 6b 70 3e ef 43 6a be b1 88 30 3e
       -0.06385677 0.23478495 -0.22877477 0.17239644
000240 3e aa 5b 3e 1b 2b 4f be 20 ea 65 3e 2a e6 37 3e
       0.21451661 -0.20231287 0.22452593 0.17958894
000250 41 4e de bd 78 19 80 3e 61 25 50 3e b3 4b a7 bd
       -0.108547695 0.2501943 0.20326759 -0.08168735
000260 64 ec 66 be c7 68 4c be b9 a6 89 3d 9c 02 59 be
       -0.22551113 -0.19961844 0.06721253 -0.21192402
000270 26 7a 3e 3e a4 9e c3 bd 48 ca 1c bd 49 e5 02 3e
       0.18601283 -0.09551743 -0.038278848 0.12782778
000280 8d 72 30 be 1d 9f 4a bd 66 81 3b 3e f2 7a d8 bd
       -0.17231198 -0.04946815 0.1831108 -0.10570325
000290 ab be 28 bd 5a 39 26 3e 71 9b 15 bd 42 27 6f be
       -0.04119746 0.16232815 -0.036525194 -0.2335482
0002a0 c0 31 49 3e ab 5b 52 3e 74 ad 4a 3e f2 4c 48 be
       0.19647884 0.20542781 0.1979273 -0.19560602
0002b0 03 d2 59 bd 08 ce ff bd 6d 39 55 3e 89 54 03 be
       -0.0531788 -0.12490469 0.20822687 -0.12825216
0002c0 59 41 4f 3e c5 83 59 3e 66 9c 1f be 98 71 07 be
       0.20239772 0.21241672 -0.15587005 -0.13226926
0002d0 2b 93 5f 3e 50 6c 0b 3e 06 14 25 bd 1c bd 2f be
       0.21833484 0.13615537 -0.0403023 -0.17161983
0002e0 eb 95 47 be 44 9d 66 be 11 29 fa bd d6 96 7f be
       -0.19490783 -0.2252093 -0.12214864 -0.24959883
0002f0 f5 1f 64 3e 02 b8 1a be 8f 68 f1 3d 98 c7 3c be
       0.22277816 -0.15109256 0.11787521 -0.18435514
000300 da 1b 03 be 1e b5 1a 3e ee 35 dd 3d f9 b9 20 be
       -0.12803593 0.15108153 0.10801302 -0.15695943
000310 8e 5a 11 be 08 2c 50 3e 03 74 1d bc c1 c9 f9 bd
       -0.141947 0.20329297 -0.009610179 -0.12196685
000320 da 12 3f 3e 48 a3 0e 3e 20 76 e9 bd 92 40 07 3e
       0.18659535 0.13929474 -0.11399484 0.13208225
000330 92 27 46 3e 2c d8 a6 3e d5 18 d2 bd e4 9b 49 be
       0.19351032 0.325868 -0.102586426 -0.19688374
000340 03 77 57 3c d1 24 ac bd 67 09 5e 3e 9a cb 8c 3e
       0.013150933 -0.0840546 0.21683274 0.27499086
000350 bb fe b9 bd 25 ee 8c be 99 38 24 3e f2 ca f4 bd
       -0.09081789 -0.2752544 0.16037215 -0.11952771
000360 8b c5 e1 bd 0d 3d f9 3d 5a 7e c9 bd f2 5c 53 3e
       -0.110240065 0.12169848 -0.09838553 0.20640925
000370 c7 c7 f9 bd 79 97 3e be 9a 1b 35 3e f4 f1 40 be
       -0.12196308 -0.1861247 0.1768631 -0.18842298
000380 9f 16 4d 3e b0 45 62 3e 56 87 05 be 9e d5 e0 3d
       0.2002816 0.22096896 -0.13039908 0.10978244
000390 ce 4c 81 3e ab 68 7d 3e 8d 71 e2 bd a3 af 6c be
       0.2525391 0.24746959 -0.11056814 -0.23113875
0003a0 6a ad c9 bd 9e c3 bb bd 88 19 19 3e a5 a8 3b 3e
       -0.09847529 -0.091681704 0.14951146 0.18326052
0003b0 0d 8a b4 bc 8e 4d f9 3d 56 5b 95 be 13 63 d1 3d
       -0.022038484 0.121729955 -0.29171246 0.10223975
0003c0 e7 35 84 be 8a 4d c7 bd ce 7c 41 be 44 99 4a be
       -0.25822374 -0.09731586 -0.18895265 -0.19785029
0003d0 16 7f 21 be 71 a3 4e 3e 64 ff 62 3e ff d6 ff bd
       -0.15771136 0.20179535 0.22167736 -0.12492179
0003e0 af 1e 28 bd 69 a3 4d be a4 74 22 3e 0e 90 18 3e
       -0.041044887 -0.20081867 0.15864807 0.14898703
0003f0 93 65 34 3e 0d 8d 3a be eb bb 5d bd ef a5 69 be
       0.17616872 -0.18217869 -0.05413429 -0.22817205

fc2.bias f4 [10]
000000 96 c7 65 3e 98 f4 76 3e 86 f2 e8 bd 01 7d de bd
       0.22439417 0.24116743 -0.11374383 -0.10863686
000010 9b cc 40 be dd 36 2f bd fd b9 a6 bd 2f b5 4b bc
       -0.18828051 -0.04277693 -0.08140943 -0.012433334
000020 e0 4d 4d 3d 16 23 41 be
       0.050123096 -0.1886104
